…
honic way to do this? decoded_output = ae . layers [ - 3 ]( encoded_input ) decoded_output = ae . layers [ - 2 ]( decoded_output ) decoded_output = ae . layers [ - 1 ]( decoded_output ) decoder = Model ( inputs = encoded_input , outputs = decoded_output ) In [7]: print ( 'Full autoencoder' ) print ( ae . summary ()) print ( ' \\n Encoder portion of autoencoder' ) print ( encoder . summary ()) Full autoencoder _________________________________________________________________ Layer (type) Output Shape Param # ================================================================= input_1 (InputLayer) (None, 128) 0 _________________________________________________________________ dense_1 (Dense) (None, 64) 8256 _________________________________________________________________ dense_2 (Dense) (None, 32) 2080 _________________________________________________________________ dense_3 (Dense) (None, 11) 363 _________________________________________________________________ dense_4 (Dense) (None, 32) 384 _________________________________________________________________ dense_5 (Dense) (None, 64) 2112 _________________________________________________________________ dense_6 (Dense) (None, 128) 8320 ================================================================= Total params: 21,515 Trainable params: 21,515 Non-trainable params: 0 _________________________________________________________________ None Encoder portion of autoencoder _________________________________________________________________ Layer (type) Output Shape Param # ================================================================= input_1 (InputLayer) (None, 128) 0 _________________________________________________________________ dense_1 (Dense) (None, 64) 8256 _________________________________________________________________ dense_2 (Dense) (None, 32) 2080 _________________________________________________________________ dense_3 (Dense) (None, 11) 363 ================================================================= Total params: 10,699 Trainable params: 10,699 Non-trainable params: 0 _________________________________________________________________ None In [8]: # specify opt. strategy ae . compile ( optimizer = 'adam' , loss = 'mse' , metrics = [ 'mse' ]) In [9]: # specify training parameters and callback functions # batch size for stochastic
…
decoder model decoder = Model ( inputs = encoded_input , outputs = decoded_output , name = 'decoder' ) In [10]: print ( 'Full autoencoder' ) print ( vae . summary ()) #print('\\n Encoder portion of autoencoder') #print(vae_encoder.summary()) #print('\\n Decoder portion of autoencoder') #print(vae_decoder.summary()) Full autoencoder __________________________________________________________________________________________________ Layer (type) Output Shape Param # Connected to ================================================================================================== input_1 (InputLayer) (None, 128) 0 __________________________________________________________________________________________________ dense_1 (Dense) (None, 64) 8256 input_1[0][0] __________________________________________________________________________________________________ leaky_re_lu_1 (LeakyReLU) (None, 64) 0 dense_1[0][0] __________________________________________________________________________________________________ dense_2 (Dense) (None, 32) 2080 leaky_re_lu_1[0][0] __________________________________________________________________________________________________ leaky_re_lu_2 (LeakyReLU) (None, 32) 0 dense_2[0][0] __________________________________________________________________________________________________ dense_3 (Dense) (None, 1) 33 leaky_re_lu_2[0][0] __________________________________________________________________________________________________ dense_4 (Dense) (None, 1) 33 leaky_re_lu_2[0][0] __________________________________________________________________________________________________ lambda_1 (Lambda) (None, 1) 0 dense_3[0][0] dense_4[0][0] __________________________________________________________________________________________________ dense_5 (Dense) (None, 32) 64 lambda_1[0][0] __________________________________________________________________________________________________ leaky_re_lu_3 (LeakyReLU) (None, 32) 0 dense_5[0][0] __________________________________________________________________________________________________ dense_6 (Dense) (None, 64) 2112 leaky_re_lu_3[0][0] __________________________________________________________________________________________________ leaky_re_lu_4 (LeakyReLU) (None, 64) 0 dense_6[0][0] __________________________________________________________________________________________________ dense_7 (Dense) (None, 128) 8320 leaky_re_lu_4[0][0] ================================================================================================== Total params: 20,898 Trainable params: 20,898 Non-trainable params: 0 __________________________________________________________________________________________________ None The loss function is another key difference between standard autoencoders and variational autoencoders. A 
…
put_shape ) validity = D ( img ) discriminator = Model ( img , validity ) WARNING:tensorflow:From /usr/local/lib/python3.6/dist-packages/keras/backend/tensorflow_backend.py:3445: calling dropout (from tensorflow.python.ops.nn_ops) with keep_prob is deprecated and will be removed in a future version. Instructions for updating: Please use `rate` instead of `keep_prob`. Rate should be set to `rate = 1 - keep_prob`. _________________________________________________________________ Layer (type) Output Shape Param # ================================================================= conv1d_1 (Conv1D) (None, 30, 8) 48 _________________________________________________________________ leaky_re_lu_1 (LeakyReLU) (None, 30, 8) 0 _________________________________________________________________ dropout_1 (Dropout) (None, 30, 8) 0 _________________________________________________________________ conv1d_2 (Conv1D) (None, 15, 16) 656 _________________________________________________________________ batch_normalization_1 (Batch (None, 15, 16) 64 _________________________________________________________________ leaky_re_lu_2 (LeakyReLU) (None, 15, 16) 0 _________________________________________________________________ dropout_2 (Dropout) (None, 15, 16) 0 _________________________________________________________________ zero_padding1d_1 (ZeroPaddin (None, 16, 16) 0 _________________________________________________________________ conv1d_3 (Conv1D) (None, 8, 32) 2592 _________________________________________________________________ batch_normalization_2 (Batch (None, 8, 32) 128 _________________________________________________________________ leaky_re_lu_3 (LeakyReLU) (None, 8, 32) 0 _________________________________________________________________ dropout_3 (Dropout) (None, 8, 32) 0 _________________________________________________________________ conv1d_4 (Conv1D) (None, 4, 64) 10304 _________________________________________________________________ batch_normalization_3 (Batch (None, 4, 64) 256 _________________________________________________________________ leaky_re_lu_4 (LeakyReLU) (None, 4, 64) 0 _________________________________________________________________ dropout_4 (Dropout) (None, 4, 64) 0 _________________________________________________________________ flatten_1 (Flatten) (None, 256) 0 _________________________________________________________________ dense_1 (Dense) (None, 1) 257 ================================================================= Total params: 14,305 Trainable params: 14,081 Non-trainable params: 224 _________________________________________________________________ Compile the generator, using the custom-defined metric and the optimizer specified above. In [0]: discriminator . compile ( loss = 'binary_crossentropy' , optimizer = optimizer , metrics = [ soft
…
2 , 1 ), padding = 'same' )) G . add ( BatchNormalization ( momentum = 0.8 )) G . add ( LeakyReLU ( alpha = 0.2 )) # In: 60 x 1 x 8 # Out: 60 x 1 property image G . add ( Reshape (( samples_per_log , - 1 ))) G . add ( Conv1D ( channels , ks , strides = 1 , padding = 'same' )) G . add ( Activation ( 'tanh' )) G . summary () noise = Input ( shape = ( latent_dim ,)) img = G ( noise ) generator = Model ( noise , img ) _________________________________________________________________ Layer (type) Output Shape Param # ================================================================= dense_2 (Dense) (None, 480) 48480 _________________________________________________________________ leaky_re_lu_5 (LeakyReLU) (None, 480) 0 _________________________________________________________________ reshape_1 (Reshape) (None, 15, 1, 32) 0 _________________________________________________________________ conv2d_transpose_1 (Conv2DTr (None, 30, 1, 16) 2576 _________________________________________________________________ batch_normalization_4 (Batch (None, 30, 1, 16) 64 _________________________________________________________________ leaky_re_lu_6 (LeakyReLU) (None, 30, 1, 16) 0 _________________________________________________________________ conv2d_transpose_2 (Conv2DTr (None, 60, 1, 8) 648 _________________________________________________________________ batch_normalization_5 (Batch (None, 60, 1, 8) 32 _________________________________________________________________ leaky_re_lu_7 (LeakyReLU) (None, 60, 1, 8) 0 _________________________________________________________________ reshape_2 (Reshape) (None, 60, 8) 0 _________________________________________________________________ conv1d_5 (Conv1D) (None, 60, 1) 41 _________________________________________________________________ activation_1 (Activation) (None, 60, 1) 0 ================================================================= Total params: 51,841 Trainable params: 51,793 Non-trainable params: 48 _________________________________________________________________ Build the generator, but do not compile. We compile the combined generator-discriminator In [0]: # The generator takes noise as input and generates imgs z = Input ( shape = ( latent_dim ,)) img = 
…
